…
Instructions for updating:
If using Keras pass *_constraint arguments to layers.
WARNING:tensorflow:From /usr/local/lib/python3.7/site-packages/tensorflow_core/python/ops/nn_impl.py:183: where (from tensorflow.python.ops.array_ops) is deprecated and will be removed in a future version.
Instructions for updating:
Use tf.where in 2.0, which has the same broadcast rule as np.where
Model: "sequential"
_________________________________________________________________
Layer (type)                 Output Shape              Param #
=================================================================
conv2d (Conv2D)              (None, 512, 512, 16)      448
_________________________________________________________________
max_pooling2d (MaxPooling2D) (None, 256, 256, 16)      0
_________________________________________________________________
conv2d_1 (Conv2D)            (None, 256, 256, 32)      4640
_________________________________________________________________
max_pooling2d_1 (MaxPooling2 (None, 128, 128, 32)      0
_________________________________________________________________
conv2d_2 (Conv2D)            (None, 128, 128, 64)      18496
_________________________________________________________________
max_pooling2d_2 (MaxPooling2 (None, 64, 64, 64)        0
_________________________________________________________________
flatten (Flatten)            (None, 262144)            0
_________________________________________________________________
dense (Dense)                (None, 128)               33554560
_________________________________________________________________
dense_1 (Dense)              (None, 1)                 129
=================================================================
Total params: 33,578,273
Trainable params: 33,578,273
Non-trainable params: 0
_________________________________________________________________
2019-12-09 16:22:28.272813: I tensorflow/stream_executor/cuda/cuda_gpu_executor.cc:983] successful NUMA node read from SysFS had negative value (-1), but there must be at least one NUMA node, so returning NUMA node zero
…
